…
2022-09-24 15:29:23,625:[P:1331]:Rank[0/1] => init bias of Linear to zeros
2022-09-24 15:29:23,625:[P:1331]:Rank[0/1] => init weight of Linear from trunc norm
2022-09-24 15:29:23,630:[P:1331]:Rank[0/1] => init bias of Linear to zeros
2022-09-24 15:29:23,630:[P:1331]:Rank[0/1] => init weight of Linear from trunc norm
2022-09-24 15:29:23,635:[P:1331]:Rank[0/1] => init bias of Linear to zeros
2022-09-24 15:29:26,692:[P:1331]:Rank[0/1] => load model file: OUTPUT/mthv2/cvt-13-224x224/model_best.pth
2022-09-24 15:29:26,835:[P:1331]:Rank[0/1] => ConvolutionalVisionTransformer(
  (stage0): VisionTransformer(
    (patch_embed): ConvEmbed(
      (proj): Conv2d(3, 64, kernel_size=(7, 7), stride=(4, 4), padding=(2, 2))
      (norm): LayerNorm((64,), eps=1e-05, elementwise_affine=True)
    )
    (pos_drop): Dropout(p=0.0, inplace=False)
    (blocks): ModuleList(
      (0): Block(
        (norm1): LayerNorm((64,), eps=1e-05, elementwise_affine=True)
        (attn): Attention(
          (conv_proj_q): Sequential(
            (conv): Conv2d(64, 64, kernel_size=(3, 3), stride=(1, 1), padding=(1, 1), groups=64, bias=False)
            (bn): BatchNorm2d(64, eps=1e-05, momentum=0.1, affine=True, track_running_stats=True)
            (rearrage): Rearrange('b c h w -> b (h w) c')
          )
          (conv_proj_k): Sequential(
            (conv): Conv2d(64, 64, kernel_size=(3, 3), stride=(2, 2), padding=(1, 1), groups=64, bias=False)
            (bn): BatchNorm2d(64, eps=1e-05, momentum=0.1, affine=True, track_running_stats=True)
            (rearrage): Rearrange('b c h w -> b (h w) c')
          )
          (conv_proj_v): Sequential(
            (conv): Conv2d(64, 64, kernel_size=(3, 3), stride=(2, 2), padding=(1, 1), groups=64, bias=False)
            (bn): BatchNorm2d(64, eps=1e-05, momentum=0.1, affine=True, track_running_stats=True)
            (rearrage): Rearrange('b c h w -> b (h w) c')
          )
          (proj_q): Linear(in_features=64, out_features=64, bias=True)
          (proj_k): Linear(in_features=64, out_features=64, bias=True)
          (proj_v): Linear(in_features=64, out_features=64, bias=True)
          (attn_drop): Dropout(p=0.0, inplace=False)
          (proj): Linear(in_features=64, out_features=64, bias=True)
          (proj_drop): Dropout(p=0.0, inplace=False)
        )
        (drop_path): Identity()
        (norm2): LayerNorm((64,), eps=1e-05, elementwise_affine=True)
        (mlp): Mlp(
          (fc1): Linear(in_features=64, out_features=256, bias=True)
          (act): QuickGELU()
          (fc2): Linear(in_features=256, out_features=64, bias=True)
          (drop): Dropout(p=0.0, inplace=False)
        )
      )
    )
  )
  (stage1): VisionTransformer(
    (patch_embed): ConvEmbed(
      (proj): Conv2d(64, 192, kernel_size=(3, 3), stride=(2, 2), padding=(1, 1))
      (norm): LayerNorm((192,), eps=1e-05, elementwise_affine=True)
    )
    (pos_drop): Dropout(p=0.0, inplace=False)
    (blocks): ModuleList(
      (0): Block(
        (norm1): LayerNorm((192,), eps=1e-05, elementwise_affine=True)
        (attn): Attention(
          (conv_proj_q): Sequential(
            (conv): Conv2d(192, 192, kernel_size=(3, 3), stride=(1, 1), padding=(1, 1), groups=192, bias=False)
            (bn): BatchNorm2d(192, eps=1e-05, momentum=0.1, affine=True, track_running_stats=True)
            (rearrage): Rearrange('b c h w -> b (h w) c')
          )
          (conv_proj_k): Sequential(
            (conv): Conv2d(192, 192, kernel_size=(3, 3), stride=(2, 2), padding=(1, 1), groups=192, bias=False)
            (bn): BatchNorm2d(192, eps=1e-05, momentum=0.1, affine=True, track_running_stats=True)
            (rearrage): Rearrange('b c h w -> b (h w) c')
          )
          (conv_proj_v): Sequential(
            (conv): Conv2d(192, 192, kernel_size=(3, 3), stride=(2, 2), padding=(1, 1), groups=192, bias=False)
            (bn): BatchNorm2d(192, eps=1e-05, momentum=0.1, affine=True, track_running_stats=True)
            (rearrage): Rearrange('b c h w -> b (h w) c')
          )
          (proj_q): Linear(in_features=192, out_features=192, bias=True)
          (proj_k): Linear(in_features=192, out_features=192, bias=True)
          (proj_v): Linear(in_features=192, out_features=192, bias=True)
          (attn_drop): Dropout(p=0.0, inplace=False)
          (proj): Linear(in_features=192, out_features=192, bias=True)
          (proj_drop): Dropout(p=0.0, inplace=False)
        )
        (drop_path): Identity()
        (norm2): LayerNorm((192,), eps=1e-05, elementwise_affine=True)
        (mlp): Mlp(
          (fc1): Linear(in_features=192, out_features=768, bias=True)
          (act): QuickGELU()
          (fc2): Linear(in_features=768, out_features=192, bias=True)
          (drop): Dropout(p=0.0, inplace=False)
        )
      )
      (1): Block(
        (norm1): LayerNorm((192,), eps=1e-05, elementwise_affine=True)
        (attn): Attention(
          (conv_proj_q): Sequential(
            (conv): Conv2d(192, 192, kernel_size=(3, 3), stride=(1, 1), padding=(1, 1), groups=192, bias=False)
            (bn): BatchNorm2d(192, eps=1e-05, momentum=0.1, affine=True, track_running_stats=True)
            (rearrage): Rearrange('b c h w -> b (h w) c')
          )
          (conv_proj_k): Sequential(
            (conv): Conv2d(192, 192, kernel_size=(3, 3), stride=(2, 2), padding=(1, 1), groups=192, bias=False)
            (bn): BatchNorm2d(192, eps=1e-05, momentum=0.1, affine=True, track_running_stats=True)
            (rearrage): Rearrange('b c h w -> b (h w) c')
          )
          (conv_proj_v): Sequential(
            (conv): Conv2d(192, 192, kernel_size=(3, 3), stride=(2, 2), padding=(1, 1), groups=192, bias=False)
            (bn): BatchNorm2d(192, eps=1e-05, momentum=0.1, affine=True, track_running_stats=True)
            (rearrage): Rearrange('b c h w -> b (h w) c')
          )
          (proj_q): Linear(in_features=192, out_features=192, bias=True)
          (proj_k): Linear(in_features=192, out_features=192, bias=True)
          (proj_v): Linear(in_features=192, out_features=192, bias=True)
          (attn_drop): Dropout(p=0.0, inplace=False)
          (proj): Linear(in_features=192, out_features=192, bias=True)
          (proj_drop): Dropout(p=0.0, inplace=False)
        )
        (drop_path): Identity()
        (norm2): LayerNorm((192,), eps=1e-05, elementwise_affine=True)
        (mlp): Mlp(
          (fc1): Linear(in_features=192, out_features=768, bias=True)
          (act): QuickGELU()
          (fc2): Linear(in_features=768, out_features=192, bias=True)
          (drop): Dropout(p=0.0, inplace=False)
        )
      )
    )
  )
  (stage2): VisionTransformer(
    (patch_embed): ConvEmbed(
      (proj): Conv2d(192, 384, kernel_size=(3, 3), stride=(2, 2), padding=(1, 1))
      (norm): LayerNorm((384,), eps=1e-05, elementwise_affine=True)
    )
    (pos_drop): Dropout(p=0.0, inplace=False)
    (blocks): ModuleList(
      (0): Block(
        (norm1): LayerNorm((384,), eps=1e-05, elementwise_affine=True)
        (attn): Attention(
          (conv_proj_q): Sequential(
            (conv): Conv2d(384, 384, kernel_size=(3, 3), stride=(1, 1), padding=(1, 1), groups=384, bias=False)
            (bn): BatchNorm2d(384, eps=1e-05, momentum=0.1, affine=True, track_running_stats=True)
            (rearrage): Rearrange('b c h w -> b (h w) c')
          )
          (conv_proj_k): Sequential(
            (conv): Conv2d(384, 384, kernel_size=(3, 3), stride=(2, 2), padding=(1, 1), groups=384, bias=False)
            (bn): BatchNorm2d(384, eps=1e-05, momentum=0.1, affine=True, track_running_stats=True)
            (rearrage): Rearrange('b c h w -> b (h w) c')
          )
          (conv_proj_v): Sequential(
            (conv): Conv2d(384, 384, kernel_size=(3, 3), stride=(2, 2), padding=(1, 1), groups=384, bias=False)
            (bn): BatchNorm2d(384, eps=1e-05, momentum=0.1, affine=True, track_running_stats=True)
            (rearrage): Rearrange('b c h w -> b (h w) c')
          )
          (proj_q): Linear(in_features=384, out_features=384, bias=True)
          (proj_k): Linear(in_features=384, out_features=384, bias=True)
          (proj_v): Linear(in_features=384, out_features=384, bias=True)
          (attn_drop): Dropout(p=0.0, inplace=False)
          (proj): Linear(in_features=384, out_features=384, bias=True)
          (proj_drop): Dropout(p=0.0, inplace=False)
        )
        (drop_path): Identity()
        (norm2): LayerNorm((384,), eps=1e-05, elementwise_affine=True)
        (mlp): Mlp(
          (fc1): Linear(in_features=384, out_features=1536, bias=True)
          (act): QuickGELU()
          (fc2): Linear(in_features=1536, out_features=384, bias=True)
          (drop): Dropout(p=0.0, inplace=False)
        )
      )
      (1): Block(
        (norm1): LayerNorm((384,), eps=1e-05, elementwise_affine=True)
        (attn): Attention(
          (conv_proj_q): Sequential(
            (conv): Conv2d(384, 384, kernel_size=(3, 3), stride=(1, 1), padding=(1, 1), groups=384, bias=False)
            (bn): BatchNorm2d(384, eps=1e-05, momentum=0.1, affine=True, track_running_stats=True)
            (rearrage): Rearrange('b c h w -> b (h w) c')
          )
          (conv_proj_k): Sequential(
            (conv): Conv2d(384, 384, kernel_size=(3, 3), stride=(2, 2), padding=(1, 1), groups=384, bias=False)
            (bn): BatchNorm2d(384, eps=1e-05, momentum=0.1, affine=True, track_running_stats=True)
            (rearrage): Rearrange('b c h w -> b (h w) c')
          )
          (conv_proj_v): Sequential(
            (conv): Conv2d(384, 384, kernel_size=(3, 3), stride=(2, 2), padding=(1, 1), groups=384, bias=False)
            (bn): BatchNorm2d(384, eps=1e-05, momentum=0.1, affine=True, track_running_stats=True)
            (rearrage): Rearrange('b c h w -> b (h w) c')
          )
          (proj_q): Linear(in_features=384, out_features=384, bias=True)
          (proj_k): Linear(in_features=384, out_features=384, bias=True)
          (proj_v): Linear(in_features=384, out_features=384, bias=True)
          (attn_drop): Dropout(p=0.0, inplace=False)
          (proj): Linear(in_features=384, out_features=384, bias=True)
          (proj_drop): Dropout(p=0.0, inplace=False)
        )
        (drop_path): DropPath(drop_prob=0.011)
        (norm2): LayerNorm((384,), eps=1e-05, elementwise_affine=True)
        (mlp): Mlp(
          (fc1): Linear(in_features=384, out_features=1536, bias=True)
          (act): QuickGELU()
          (fc2): Linear(in_features=1536, out_features=384, bias=True)
          (drop): Dropout(p=0.0, inplace=False)
        )
      )
      (2): Block(
        (norm1): LayerNorm((384,), eps=1e-05, elementwise_affine=True)
        (attn): Attention(
          (conv_proj_q): Sequential(
            (conv): Conv2d(384, 384, kernel_size=(3, 3), stride=(1, 1), padding=(1, 1), groups=384, bias=False)
            (bn): BatchNorm2d(384, eps=1e-05, momentum=0.1, affine=True, track_running_stats=True)
            (rearrage): Rearrange('b c h w -> b (h w) c')
          )
          (conv_proj_k): Sequential(
            (conv): Conv2d(384, 384, kernel_size=(3, 3), stride=(2, 2), padding=(1, 1), groups=384, bias=False)
            (bn): BatchNorm2d(384, eps=1e-05, momentum=0.1, affine=True, track_running_stats=True)
            (rearrage): Rearrange('b c h w -> b (h w) c')
          )
          (conv_proj_v): Sequential(
            (conv): Conv2d(384, 384, kernel_size=(3, 3), stride=(2, 2), padding=(1, 1), groups=384, bias=False)
            (bn): BatchNorm2d(384, eps=1e-05, momentum=0.1, affine=True, track_running_stats=True)
            (rearrage): Rearrange('b c h w -> b (h w) c')
          )
          (proj_q): Linear(in_features=384, out_features=384, bias=True)
          (proj_k): Linear(in_features=384, out_features=384, bias=True)
          (proj_v): Linear(in_features=384, out_features=384, bias=True)
          (attn_drop): Dropout(p=0.0, inplace=False)
          (proj): Linear(in_features=384, out_features=384, bias=True)
          (proj_drop): Dropout(p=0.0, inplace=False)
        )
        (drop_path): DropPath(drop_prob=0.022)
        (norm2): LayerNorm((384,), eps=1e-05, elementwise_affine=True)
        (mlp): Mlp(
          (fc1): Linear(in_features=384, out_features=1536, bias=True)
          (act): QuickGELU()
          (fc2): Linear(in_features=1536, out_features=384, bias=True)
          (drop): Dropout(p=0.0, inplace=False)
        )
      )
      (3): Block(
        (norm1): LayerNorm((384,), eps=1e-05, elementwise_affine=True)
        (attn): Attention(
          (conv_proj_q): Sequential(
            (conv): Conv2d(384, 384, kernel_size=(3, 3), stride=(1, 1), padding=(1, 1), groups=384, bias=False)
            (bn): BatchNorm2d(384, eps=1e-05, momentum=0.1, affine=True, track_running_stats=True)
            (rearrage): Rearrange('b c h w -> b (h w) c')
          )
          (conv_proj_k): Sequential(
            (conv): Conv2d(384, 384, kernel_size=(3, 3), stride=(2, 2), padding=(1, 1), groups=384, bias=False)
            (bn): BatchNorm2d(384, eps=1e-05, momentum=0.1, affine=True, track_running_stats=True)
            (rearrage): Rearrange('b c h w -> b (h w) c')
          )
          (conv_proj_v): Sequential(
            (conv): Conv2d(384, 384, kernel_size=(3, 3), stride=(2, 2), padding=(1, 1), groups=384, bias=False)
            (bn): BatchNorm2d(384, eps=1e-05, momentum=0.1, affine=True, track_running_stats=True)
            (rearrage): Rearrange('b c h w -> b (h w) c')
          )
          (proj_q): Linear(in_features=384, out_features=384, bias=True)
          (proj_k): Linear(in_features=384, out_features=384, bias=True)
          (proj_v): Linear(in_features=384, out_features=384, bias=True)
          (attn_drop): Dropout(p=0.0, inplace=False)
          (proj): Linear(in_features=384, out_features=384, bias=True)
          (proj_drop): Dropout(p=0.0, inplace=False)
        )
        (drop_path): DropPath(drop_prob=0.033)
        (norm2): LayerNorm((384,), eps=1e-05, elementwise_affine=True)
        (mlp): Mlp(
          (fc1): Linear(in_features=384, out_features=1536, bias=True)
          (act): QuickGELU()
          (fc2): Linear(in_features=1536, out_features=384, bias=True)
          (drop): Dropout(p=0.0, inplace=False)
        )
      )
      (4): Block(
        (norm1): LayerNorm((384,), eps=1e-05, elementwise_affine=True)
        (attn): Attention(
          (conv_proj_q): Sequential(
            (conv): Conv2d(384, 384, kernel_size=(3, 3), stride=(1, 1), padding=(1, 1), groups=384, bias=False)
            (bn): BatchNorm2d(384, eps=1e-05, momentum=0.1, affine=True, track_running_stats=True)
            (rearrage): Rearrange('b c h w -> b (h w) c')
          )
          (conv_proj_k): Sequential(
            (conv): Conv2d(384, 384, kernel_size=(3, 3), stride=(2, 2), padding=(1, 1), groups=384, bias=False)
            (bn): BatchNorm2d(384, eps=1e-05, momentum=0.1, affine=True, track_running_stats=True)
            (rearrage): Rearrange('b c h w -> b (h w) c')
          )
          (conv_proj_v): Sequential(
            (conv): Conv2d(384, 384, kernel_size=(3, 3), stride=(2, 2), padding=(1, 1), groups=384, bias=False)
            (bn): BatchNorm2d(384, eps=1e-05, momentum=0.1, affine=True, track_running_stats=True)
            (rearrage): Rearrange('b c h w -> b (h w) c')
          )
          (proj_q): Linear(in_features=384, out_features=384, bias=True)
          (proj_k): Linear(in_features=384, out_features=384, bias=True)
          (proj_v): Linear(in_features=384, out_features=384, bias=True)
          (attn_drop): Dropout(p=0.0, inplace=False)
          (proj): Linear(in_features=384, out_features=384, bias=True)
          (proj_drop): Dropout(p=0.0, inplace=False)
        )
        (drop_path): DropPath(drop_prob=0.044)
        (norm2): LayerNorm((384,), eps=1e-05, elementwise_affine=True)
        (mlp): Mlp(
          (fc1): Linear(in_features=384, out_features=1536, bias=True)
          (act): QuickGELU()
          (fc2): Linear(in_features=1536, out_features=384, bias=True)
          (drop): Dropout(p=0.0, inplace=False)
        )
      )
      (5): Block(
        (norm1): LayerNorm((384,), eps=1e-05, elementwise_affine=True)
        (attn): Attention(
          (conv_proj_q): Sequential(
            (conv): Conv2d(384, 384, kernel_size=(3, 3), stride=(1, 1), padding=(1, 1), groups=384, bias=False)
            (bn): BatchNorm2d(384, eps=1e-05, momentum=0.1, affine=True, track_running_stats=True)
            (rearrage): Rearrange('b c h w -> b (h w) c')
          )
          (conv_proj_k): Sequential(
            (conv): Conv2d(384, 384, kernel_size=(3, 3), stride=(2, 2), padding=(1, 1), groups=384, bias=False)
            (bn): BatchNorm2d(384, eps=1e-05, momentum=0.1, affine=True, track_running_stats=True)
            (rearrage): Rearrange('b c h w -> b (h w) c')
          )
          (conv_proj_v): Sequential(
            (conv): Conv2d(384, 384, kernel_size=(3, 3), stride=(2, 2), padding=(1, 1), groups=384, bias=False)
            (bn): BatchNorm2d(384, eps=1e-05, momentum=0.1, affine=True, track_running_stats=True)
            (rearrage): Rearrange('b c h w -> b (h w) c')
          )
          (proj_q): Linear(in_features=384, out_features=384, bias=True)
          (proj_k): Linear(in_features=384, out_features=384, bias=True)
          (proj_v): Linear(in_features=384, out_features=384, bias=True)
          (attn_drop): Dropout(p=0.0, inplace=False)
          (proj): Linear(in_features=384, out_features=384, bias=True)
          (proj_drop): Dropout(p=0.0, inplace=False)
        )
        (drop_path): DropPath(drop_prob=0.056)
        (norm2): LayerNorm((384,), eps=1e-05, elementwise_affine=True)
        (mlp): Mlp(
          (fc1): Linear(in_features=384, out_features=1536, bias=True)
          (act): QuickGELU()
          (fc2): Linear(in_features=1536, out_features=384, bias=True)
          (drop): Dropout(p=0.0, inplace=False)
        )
      )
      (6): Block(
        (norm1): LayerNorm((384,), eps=1e-05, elementwise_affine=True)
        (attn): Attention(
          (conv_proj_q): Sequential(
            (conv): Conv2d(384, 384, kernel_size=(3, 3), stride=(1, 1), padding=(1, 1), groups=384, bias=False)
            (bn): BatchNorm2d(384, eps=1e-05, momentum=0.1, affine=True, track_running_stats=True)
            (rearrage): Rearrange('b c h w -> b (h w) c')
          )
          (conv_proj_k): Sequential(
            (conv): Conv2d(384, 384, kernel_size=(3, 3), stride=(2, 2), padding=(1, 1), groups=384, bias=False)
            (bn): BatchNorm2d(384, eps=1e-05, momentum=0.1, affine=True, track_running_stats=True)
            (rearrage): Rearrange('b c h w -> b (h w) c')
          )
          (conv_proj_v): Sequential(
            (conv): Conv2d(384, 384, kernel_size=(3, 3), stride=(2, 2), padding=(1, 1), groups=384, bias=False)
            (bn): BatchNorm2d(384, eps=1e-05, momentum=0.1, affine=True, track_running_stats=True)
            (rearrage): Rearrange('b c h w -> b (h w) c')
          )
          (proj_q): Linear(in_features=384, out_features=384, bias=True)
          (proj_k): Linear(in_features=384, out_features=384, bias=True)
          (proj_v): Linear(in_features=384, out_features=384, bias=True)
          (attn_drop): Dropout(p=0.0, inplace=False)
          (proj): Linear(in_features=384, out_features=384, bias=True)
          (proj_drop): Dropout(p=0.0, inplace=False)
        )
        (drop_path): DropPath(drop_prob=0.067)
        (norm2): LayerNorm((384,), eps=1e-05, elementwise_affine=True)
        (mlp): Mlp(
          (fc1): Linear(in_features=384, out_features=1536, bias=True)
          (act): QuickGELU()
          (fc2): Linear(in_features=1536, out_features=384, bias=True)
          (drop): Dropout(p=0.0, inplace=False)
        )
      )
      (7): Block(
        (norm1): LayerNorm((384,), eps=1e-05, elementwise_affine=True)
        (attn): Attention(
          (conv_proj_q): Sequential(
            (conv): Conv2d(384, 384, kernel_size=(3, 3), stride=(1, 1), padding=(1, 1), groups=384, bias=False)
            (bn): BatchNorm2d(384, eps=1e-05, momentum=0.1, affine=True, track_running_stats=True)
            (rearrage): Rearrange('b c h w -> b (h w) c')
          )
          (conv_proj_k): Sequential(
            (conv): Conv2d(384, 384, kernel_size=(3, 3), stride=(2, 2), padding=(1, 1), groups=384, bias=False)
            (bn): BatchNorm2d(384, eps=1e-05, momentum=0.1, affine=True, track_running_stats=True)
            (rearrage): Rearrange('b c h w -> b (h w) c')
          )
          (conv_proj_v): Sequential(
            (conv): Conv2d(384, 384, kernel_size=(3, 3), stride=(2, 2), padding=(1, 1), groups=384, bias=False)
            (bn): BatchNorm2d(384, eps=1e-05, momentum=0.1, affine=True, track_running_stats=True)
            (rearrage): Rearrange('b c h w -> b (h w) c')
          )
          (proj_q): Linear(in_features=384, out_features=384, bias=True)
          (proj_k): Linear(in_features=384, out_features=384, bias=True)
          (proj_v): Linear(in_features=384, out_features=384, bias=True)
          (attn_drop): Dropout(p=0.0, inplace=False)
          (proj): Linear(in_features=384, out_features=384, bias=True)
          (proj_drop): Dropout(p=0.0, inplace=False)
        )
        (drop_path): DropPath(drop_prob=0.078)
        (norm2): LayerNorm((384,), eps=1e-05, elementwise_affine=True)
        (mlp): Mlp(
          (fc1): Linear(in_features=384, out_features=1536, bias=True)
          (act): QuickGELU()
          (fc2): Linear(in_features=1536, out_features=384, bias=True)
          (drop): Dropout(p=0.0, inplace=False)
        )
      )
      (8): Block(
        (norm1): LayerNorm((384,), eps=1e-05, elementwise_affine=True)
        (attn): Attention(
          (conv_proj_q): Sequential(
            (conv): Conv2d(384, 384, kernel_size=(3, 3), stride=(1, 1), padding=(1, 1), groups=384, bias=False)
            (bn): BatchNorm2d(384, eps=1e-05, momentum=0.1, affine=True, track_running_stats=True)
            (rearrage): Rearrange('b c h w -> b (h w) c')
          )
          (conv_proj_k): Sequential(
            (conv): Conv2d(384, 384, kernel_size=(3, 3), stride=(2, 2), padding=(1, 1), groups=384, bias=False)
            (bn): BatchNorm2d(384, eps=1e-05, momentum=0.1, affine=True, track_running_stats=True)
            (rearrage): Rearrange('b c h w -> b (h w) c')
          )
          (conv_proj_v): Sequential(
            (conv): Conv2d(384, 384, kernel_size=(3, 3), stride=(2, 2), padding=(1, 1), groups=384, bias=False)
            (bn): BatchNorm2d(384, eps=1e-05, momentum=0.1, affine=True, track_running_stats=True)
            (rearrage): Rearrange('b c h w -> b (h w) c')
          )
          (proj_q): Linear(in_features=384, out_features=384, bias=True)
          (proj_k): Linear(in_features=384, out_features=384, bias=True)
          (proj_v): Linear(in_features=384, out_features=384, bias=True)
          (attn_drop): Dropout(p=0.0, inplace=False)
          (proj): Linear(in_features=384, out_features=384, bias=True)
          (proj_drop): Dropout(p=0.0, inplace=False)
        )
        (drop_path): DropPath(drop_prob=0.089)
        (norm2): LayerNorm((384,), eps=1e-05, elementwise_affine=True)
        (mlp): Mlp(
          (fc1): Linear(in_features=384, out_features=1536, bias=True)
          (act): QuickGELU()
          (fc2): Linear(in_features=1536, out_features=384, bias=True)
          (drop): Dropout(p=0.0, inplace=False)
        )
      )
      (9): Block(
        (norm1): LayerNorm((384,), eps=1e-05, elementwise_affine=True)
        (attn): Attention(
          (conv_proj_q): Sequential(
            (conv): Conv2d(384, 384, kernel_size=(3, 3), stride=(1, 1), padding=(1, 1), groups=384, bias=False)
            (bn): BatchNorm2d(384, eps=1e-05, momentum=0.1, affine=True, track_running_stats=True)
            (rearrage): Rearrange('b c h w -> b (h w) c')
          )
          (conv_proj_k): Sequential(
            (conv): Conv2d(384, 384, kernel_size=(3, 3), stride=(2, 2), padding=(1, 1), groups=384, bias=False)
            (bn): BatchNorm2d(384, eps=1e-05, momentum=0.1, affine=True, track_running_stats=True)
            (rearrage): Rearrange('b c h w -> b (h w) c')
          )
          (conv_proj_v): Sequential(
            (conv): Conv2d(384, 384, kernel_size=(3, 3), stride=(2, 2), padding=(1, 1), groups=384, bias=False)
            (bn): BatchNorm2d(384, eps=1e-05, momentum=0.1, affine=True, track_running_stats=True)
            (rearrage): Rearrange('b c h w -> b (h w) c')
          )
          (proj_q): Linear(in_features=384, out_features=384, bias=True)
          (proj_k): Linear(in_features=384, out_features=384, bias=True)
          (proj_v): Linear(in_features=384, out_features=384, bias=True)
          (attn_drop): Dropout(p=0.0, inplace=False)
          (proj): Linear(in_features=384, out_features=384, bias=True)
          (proj_drop): Dropout(p=0.0, inplace=False)
        )
        (drop_path): DropPath(drop_prob=0.100)
        (norm2): LayerNorm((384,), eps=1e-05, elementwise_affine=True)
        (mlp): Mlp(
          (fc1): Linear(in_features=384, out_features=1536, bias=True)
          (act): QuickGELU()
          (fc2): Linear(in_features=1536, out_features=384, bias=True)
          (drop): Dropout(p=0.0, inplace=False)
        )
      )
    )
  )
  (norm): LayerNorm((384,), eps=1e-05, elementwise_affine=True)
  (head): Linear(in_features=384, out_features=6065, bias=True)
)
2022-09-24 15:29:26,840:[P:1331]:Rank[0/1] Trainable Model Total Parameter: 	21.9M
2022-09-24 15:29:26,840:[P:1331]:Rank[0/1] => start testing ED
2022-09-24 15:29:26,892:[P:1331]:Rank[0/1] sentences number:82006
2022-09-24 15:29:26,892:[P:1331]:Rank[0/1] => 譯經润文推誠保德習金紫光祿太天行尚書兵部侍郎兼宗卿脩國##國#郡開國食邑主晨###阡倉趙安仁
2022-09-24 15:29:26,892:[P:1331]:Rank[0/1] => ED dataset is building
…
