…
2022-08-28 14:04:25,743:[P:6987]:Rank[0/1] => init weight of Linear from trunc norm
2022-08-28 14:04:25,745:[P:6987]:Rank[0/1] => init bias of Linear to zeros
2022-08-28 14:04:25,745:[P:6987]:Rank[0/1] => init weight of Linear from trunc norm
2022-08-28 14:04:25,749:[P:6987]:Rank[0/1] => init bias of Linear to zeros
2022-08-28 14:04:25,750:[P:6987]:Rank[0/1] => init weight of Linear from trunc norm
2022-08-28 14:04:25,823:[P:6987]:Rank[0/1] => init bias of Linear to zeros
2022-08-28 14:04:29,250:[P:6987]:Rank[0/1] => ConvolutionalVisionTransformer(
  (stage0): VisionTransformer(
    (patch_embed): ConvEmbed(
      (proj): Conv2d(3, 64, kernel_size=(7, 7), stride=(4, 4), padding=(2, 2))
      (norm): LayerNorm((64,), eps=1e-05, elementwise_affine=True)
    )
    (pos_drop): Dropout(p=0.0, inplace=False)
    (blocks): ModuleList(
      (0): Block(
        (norm1): LayerNorm((64,), eps=1e-05, elementwise_affine=True)
        (attn): Attention(
          (conv_proj_q): Sequential(
            (conv): Conv2d(64, 64, kernel_size=(3, 3), stride=(1, 1), padding=(1, 1), groups=64, bias=False)
            (bn): BatchNorm2d(64, eps=1e-05, momentum=0.1, affine=True, track_running_stats=True)
            (rearrage): Rearrange('b c h w -> b (h w) c')
          )
          (conv_proj_k): Sequential(
            (conv): Conv2d(64, 64, kernel_size=(3, 3), stride=(2, 2), padding=(1, 1), groups=64, bias=False)
            (bn): BatchNorm2d(64, eps=1e-05, momentum=0.1, affine=True, track_running_stats=True)
            (rearrage): Rearrange('b c h w -> b (h w) c')
          )
          (conv_proj_v): Sequential(
            (conv): Conv2d(64, 64, kernel_size=(3, 3), stride=(2, 2), padding=(1, 1), groups=64, bias=False)
            (bn): BatchNorm2d(64, eps=1e-05, momentum=0.1, affine=True, track_running_stats=True)
            (rearrage): Rearrange('b c h w -> b (h w) c')
          )
          (proj_q): Linear(in_features=64, out_features=64, bias=True)
          (proj_k): Linear(in_features=64, out_features=64, bias=True)
          (proj_v): Linear(in_features=64, out_features=64, bias=True)
          (attn_drop): Dropout(p=0.0, inplace=False)
          (proj): Linear(in_features=64, out_features=64, bias=True)
          (proj_drop): Dropout(p=0.0, inplace=False)
        )
        (drop_path): Identity()
        (norm2): LayerNorm((64,), eps=1e-05, elementwise_affine=True)
        (mlp): Mlp(
          (fc1): Linear(in_features=64, out_features=256, bias=True)
          (act): QuickGELU()
          (fc2): Linear(in_features=256, out_features=64, bias=True)
          (drop): Dropout(p=0.0, inplace=False)
        )
      )
    )
  )
  (stage1): VisionTransformer(
    (patch_embed): ConvEmbed(
      (proj): Conv2d(64, 192, kernel_size=(3, 3), stride=(2, 2), padding=(1, 1))
      (norm): LayerNorm((192,), eps=1e-05, elementwise_affine=True)
    )
    (pos_drop): Dropout(p=0.0, inplace=False)
    (blocks): ModuleList(
      (0): Block(
        (norm1): LayerNorm((192,), eps=1e-05, elementwise_affine=True)
        (attn): Attention(
          (conv_proj_q): Sequential(
            (conv): Conv2d(192, 192, kernel_size=(3, 3), stride=(1, 1), padding=(1, 1), groups=192, bias=False)
            (bn): BatchNorm2d(192, eps=1e-05, momentum=0.1, affine=True, track_running_stats=True)
            (rearrage): Rearrange('b c h w -> b (h w) c')
          )
          (conv_proj_k): Sequential(
            (conv): Conv2d(192, 192, kernel_size=(3, 3), stride=(2, 2), padding=(1, 1), groups=192, bias=False)
            (bn): BatchNorm2d(192, eps=1e-05, momentum=0.1, affine=True, track_running_stats=True)
            (rearrage): Rearrange('b c h w -> b (h w) c')
          )
          (conv_proj_v): Sequential(
            (conv): Conv2d(192, 192, kernel_size=(3, 3), stride=(2, 2), padding=(1, 1), groups=192, bias=False)
            (bn): BatchNorm2d(192, eps=1e-05, momentum=0.1, affine=True, track_running_stats=True)
            (rearrage): Rearrange('b c h w -> b (h w) c')
          )
          (proj_q): Linear(in_features=192, out_features=192, bias=True)
          (proj_k): Linear(in_features=192, out_features=192, bias=True)
          (proj_v): Linear(in_features=192, out_features=192, bias=True)
          (attn_drop): Dropout(p=0.0, inplace=False)
          (proj): Linear(in_features=192, out_features=192, bias=True)
          (proj_drop): Dropout(p=0.0, inplace=False)
        )
        (drop_path): Identity()
        (norm2): LayerNorm((192,), eps=1e-05, elementwise_affine=True)
        (mlp): Mlp(
          (fc1): Linear(in_features=192, out_features=768, bias=True)
          (act): QuickGELU()
          (fc2): Linear(in_features=768, out_features=192, bias=True)
          (drop): Dropout(p=0.0, inplace=False)
        )
      )
      (1): Block(
        (norm1): LayerNorm((192,), eps=1e-05, elementwise_affine=True)
        (attn): Attention(
          (conv_proj_q): Sequential(
            (conv): Conv2d(192, 192, kernel_size=(3, 3), stride=(1, 1), padding=(1, 1), groups=192, bias=False)
            (bn): BatchNorm2d(192, eps=1e-05, momentum=0.1, affine=True, track_running_stats=True)
            (rearrage): Rearrange('b c h w -> b (h w) c')
          )
          (conv_proj_k): Sequential(
            (conv): Conv2d(192, 192, kernel_size=(3, 3), stride=(2, 2), padding=(1, 1), groups=192, bias=False)
            (bn): BatchNorm2d(192, eps=1e-05, momentum=0.1, affine=True, track_running_stats=True)
            (rearrage): Rearrange('b c h w -> b (h w) c')
          )
          (conv_proj_v): Sequential(
            (conv): Conv2d(192, 192, kernel_size=(3, 3), stride=(2, 2), padding=(1, 1), groups=192, bias=False)
            (bn): BatchNorm2d(192, eps=1e-05, momentum=0.1, affine=True, track_running_stats=True)
            (rearrage): Rearrange('b c h w -> b (h w) c')
          )
          (proj_q): Linear(in_features=192, out_features=192, bias=True)
          (proj_k): Linear(in_features=192, out_features=192, bias=True)
          (proj_v): Linear(in_features=192, out_features=192, bias=True)
          (attn_drop): Dropout(p=0.0, inplace=False)
          (proj): Linear(in_features=192, out_features=192, bias=True)
          (proj_drop): Dropout(p=0.0, inplace=False)
        )
        (drop_path): Identity()
        (norm2): LayerNorm((192,), eps=1e-05, elementwise_affine=True)
        (mlp): Mlp(
          (fc1): Linear(in_features=192, out_features=768, bias=True)
          (act): QuickGELU()
          (fc2): Linear(in_features=768, out_features=192, bias=True)
          (drop): Dropout(p=0.0, inplace=False)
        )
      )
    )
  )
  (stage2): VisionTransformer(
    (patch_embed): ConvEmbed(
      (proj): Conv2d(192, 384, kernel_size=(3, 3), stride=(2, 2), padding=(1, 1))
      (norm): LayerNorm((384,), eps=1e-05, elementwise_affine=True)
    )
    (pos_drop): Dropout(p=0.0, inplace=False)
    (blocks): ModuleList(
      (0): Block(
        (norm1): LayerNorm((384,), eps=1e-05, elementwise_affine=True)
        (attn): Attention(
          (conv_proj_q): Sequential(
            (conv): Conv2d(384, 384, kernel_size=(3, 3), stride=(1, 1), padding=(1, 1), groups=384, bias=False)
            (bn): BatchNorm2d(384, eps=1e-05, momentum=0.1, affine=True, track_running_stats=True)
            (rearrage): Rearrange('b c h w -> b (h w) c')
          )
          (conv_proj_k): Sequential(
            (conv): Conv2d(384, 384, kernel_size=(3, 3), stride=(2, 2), padding=(1, 1), groups=384, bias=False)
            (bn): BatchNorm2d(384, eps=1e-05, momentum=0.1, affine=True, track_running_stats=True)
            (rearrage): Rearrange('b c h w -> b (h w) c')
          )
          (conv_proj_v): Sequential(
            (conv): Conv2d(384, 384, kernel_size=(3, 3), stride=(2, 2), padding=(1, 1), groups=384, bias=False)
            (bn): BatchNorm2d(384, eps=1e-05, momentum=0.1, affine=True, track_running_stats=True)
            (rearrage): Rearrange('b c h w -> b (h w) c')
          )
          (proj_q): Linear(in_features=384, out_features=384, bias=True)
          (proj_k): Linear(in_features=384, out_features=384, bias=True)
          (proj_v): Linear(in_features=384, out_features=384, bias=True)
          (attn_drop): Dropout(p=0.0, inplace=False)
          (proj): Linear(in_features=384, out_features=384, bias=True)
          (proj_drop): Dropout(p=0.0, inplace=False)
        )
        (drop_path): Identity()
        (norm2): LayerNorm((384,), eps=1e-05, elementwise_affine=True)
        (mlp): Mlp(
          (fc1): Linear(in_features=384, out_features=1536, bias=True)
          (act): QuickGELU()
          (fc2): Linear(in_features=1536, out_features=384, bias=True)
          (drop): Dropout(p=0.0, inplace=False)
        )
      )
      (1): Block(
        (norm1): LayerNorm((384,), eps=1e-05, elementwise_affine=True)
        (attn): Attention(
          (conv_proj_q): Sequential(
            (conv): Conv2d(384, 384, kernel_size=(3, 3), stride=(1, 1), padding=(1, 1), groups=384, bias=False)
            (bn): BatchNorm2d(384, eps=1e-05, momentum=0.1, affine=True, track_running_stats=True)
            (rearrage): Rearrange('b c h w -> b (h w) c')
          )
          (conv_proj_k): Sequential(
            (conv): Conv2d(384, 384, kernel_size=(3, 3), stride=(2, 2), padding=(1, 1), groups=384, bias=False)
            (bn): BatchNorm2d(384, eps=1e-05, momentum=0.1, affine=True, track_running_stats=True)
            (rearrage): Rearrange('b c h w -> b (h w) c')
          )
          (conv_proj_v): Sequential(
            (conv): Conv2d(384, 384, kernel_size=(3, 3), stride=(2, 2), padding=(1, 1), groups=384, bias=False)
            (bn): BatchNorm2d(384, eps=1e-05, momentum=0.1, affine=True, track_running_stats=True)
            (rearrage): Rearrange('b c h w -> b (h w) c')
          )
          (proj_q): Linear(in_features=384, out_features=384, bias=True)
          (proj_k): Linear(in_features=384, out_features=384, bias=True)
          (proj_v): Linear(in_features=384, out_features=384, bias=True)
          (attn_drop): Dropout(p=0.0, inplace=False)
          (proj): Linear(in_features=384, out_features=384, bias=True)
          (proj_drop): Dropout(p=0.0, inplace=False)
        )
        (drop_path): DropPath(drop_prob=0.011)
        (norm2): LayerNorm((384,), eps=1e-05, elementwise_affine=True)
        (mlp): Mlp(
          (fc1): Linear(in_features=384, out_features=1536, bias=True)
          (act): QuickGELU()
          (fc2): Linear(in_features=1536, out_features=384, bias=True)
          (drop): Dropout(p=0.0, inplace=False)
        )
      )
      (2): Block(
        (norm1): LayerNorm((384,), eps=1e-05, elementwise_affine=True)
        (attn): Attention(
          (conv_proj_q): Sequential(
            (conv): Conv2d(384, 384, kernel_size=(3, 3), stride=(1, 1), padding=(1, 1), groups=384, bias=False)
            (bn): BatchNorm2d(384, eps=1e-05, momentum=0.1, affine=True, track_running_stats=True)
            (rearrage): Rearrange('b c h w -> b (h w) c')
          )
          (conv_proj_k): Sequential(
            (conv): Conv2d(384, 384, kernel_size=(3, 3), stride=(2, 2), padding=(1, 1), groups=384, bias=False)
            (bn): BatchNorm2d(384, eps=1e-05, momentum=0.1, affine=True, track_running_stats=True)
            (rearrage): Rearrange('b c h w -> b (h w) c')
          )
          (conv_proj_v): Sequential(
            (conv): Conv2d(384, 384, kernel_size=(3, 3), stride=(2, 2), padding=(1, 1), groups=384, bias=False)
            (bn): BatchNorm2d(384, eps=1e-05, momentum=0.1, affine=True, track_running_stats=True)
            (rearrage): Rearrange('b c h w -> b (h w) c')
          )
          (proj_q): Linear(in_features=384, out_features=384, bias=True)
          (proj_k): Linear(in_features=384, out_features=384, bias=True)
          (proj_v): Linear(in_features=384, out_features=384, bias=True)
          (attn_drop): Dropout(p=0.0, inplace=False)
          (proj): Linear(in_features=384, out_features=384, bias=True)
          (proj_drop): Dropout(p=0.0, inplace=False)
        )
        (drop_path): DropPath(drop_prob=0.022)
        (norm2): LayerNorm((384,), eps=1e-05, elementwise_affine=True)
        (mlp): Mlp(
          (fc1): Linear(in_features=384, out_features=1536, bias=True)
          (act): QuickGELU()
          (fc2): Linear(in_features=1536, out_features=384, bias=True)
          (drop): Dropout(p=0.0, inplace=False)
        )
      )
      (3): Block(
        (norm1): LayerNorm((384,), eps=1e-05, elementwise_affine=True)
        (attn): Attention(
          (conv_proj_q): Sequential(
            (conv): Conv2d(384, 384, kernel_size=(3, 3), stride=(1, 1), padding=(1, 1), groups=384, bias=False)
            (bn): BatchNorm2d(384, eps=1e-05, momentum=0.1, affine=True, track_running_stats=True)
            (rearrage): Rearrange('b c h w -> b (h w) c')
          )
          (conv_proj_k): Sequential(
            (conv): Conv2d(384, 384, kernel_size=(3, 3), stride=(2, 2), padding=(1, 1), groups=384, bias=False)
            (bn): BatchNorm2d(384, eps=1e-05, momentum=0.1, affine=True, track_running_stats=True)
            (rearrage): Rearrange('b c h w -> b (h w) c')
          )
          (conv_proj_v): Sequential(
            (conv): Conv2d(384, 384, kernel_size=(3, 3), stride=(2, 2), padding=(1, 1), groups=384, bias=False)
            (bn): BatchNorm2d(384, eps=1e-05, momentum=0.1, affine=True, track_running_stats=True)
            (rearrage): Rearrange('b c h w -> b (h w) c')
          )
          (proj_q): Linear(in_features=384, out_features=384, bias=True)
          (proj_k): Linear(in_features=384, out_features=384, bias=True)
          (proj_v): Linear(in_features=384, out_features=384, bias=True)
          (attn_drop): Dropout(p=0.0, inplace=False)
          (proj): Linear(in_features=384, out_features=384, bias=True)
          (proj_drop): Dropout(p=0.0, inplace=False)
        )
        (drop_path): DropPath(drop_prob=0.033)
        (norm2): LayerNorm((384,), eps=1e-05, elementwise_affine=True)
        (mlp): Mlp(
          (fc1): Linear(in_features=384, out_features=1536, bias=True)
          (act): QuickGELU()
          (fc2): Linear(in_features=1536, out_features=384, bias=True)
          (drop): Dropout(p=0.0, inplace=False)
        )
      )
      (4): Block(
        (norm1): LayerNorm((384,), eps=1e-05, elementwise_affine=True)
        (attn): Attention(
          (conv_proj_q): Sequential(
            (conv): Conv2d(384, 384, kernel_size=(3, 3), stride=(1, 1), padding=(1, 1), groups=384, bias=False)
            (bn): BatchNorm2d(384, eps=1e-05, momentum=0.1, affine=True, track_running_stats=True)
            (rearrage): Rearrange('b c h w -> b (h w) c')
          )
          (conv_proj_k): Sequential(
            (conv): Conv2d(384, 384, kernel_size=(3, 3), stride=(2, 2), padding=(1, 1), groups=384, bias=False)
            (bn): BatchNorm2d(384, eps=1e-05, momentum=0.1, affine=True, track_running_stats=True)
            (rearrage): Rearrange('b c h w -> b (h w) c')
          )
          (conv_proj_v): Sequential(
            (conv): Conv2d(384, 384, kernel_size=(3, 3), stride=(2, 2), padding=(1, 1), groups=384, bias=False)
            (bn): BatchNorm2d(384, eps=1e-05, momentum=0.1, affine=True, track_running_stats=True)
            (rearrage): Rearrange('b c h w -> b (h w) c')
          )
          (proj_q): Linear(in_features=384, out_features=384, bias=True)
          (proj_k): Linear(in_features=384, out_features=384, bias=True)
          (proj_v): Linear(in_features=384, out_features=384, bias=True)
          (attn_drop): Dropout(p=0.0, inplace=False)
          (proj): Linear(in_features=384, out_features=384, bias=True)
          (proj_drop): Dropout(p=0.0, inplace=False)
        )
        (drop_path): DropPath(drop_prob=0.044)
        (norm2): LayerNorm((384,), eps=1e-05, elementwise_affine=True)
        (mlp): Mlp(
          (fc1): Linear(in_features=384, out_features=1536, bias=True)
          (act): QuickGELU()
          (fc2): Linear(in_features=1536, out_features=384, bias=True)
          (drop): Dropout(p=0.0, inplace=False)
        )
      )
      (5): Block(
        (norm1): LayerNorm((384,), eps=1e-05, elementwise_affine=True)
        (attn): Attention(
          (conv_proj_q): Sequential(
            (conv): Conv2d(384, 384, kernel_size=(3, 3), stride=(1, 1), padding=(1, 1), groups=384, bias=False)
            (bn): BatchNorm2d(384, eps=1e-05, momentum=0.1, affine=True, track_running_stats=True)
            (rearrage): Rearrange('b c h w -> b (h w) c')
          )
          (conv_proj_k): Sequential(
            (conv): Conv2d(384, 384, kernel_size=(3, 3), stride=(2, 2), padding=(1, 1), groups=384, bias=False)
            (bn): BatchNorm2d(384, eps=1e-05, momentum=0.1, affine=True, track_running_stats=True)
            (rearrage): Rearrange('b c h w -> b (h w) c')
          )
          (conv_proj_v): Sequential(
            (conv): Conv2d(384, 384, kernel_size=(3, 3), stride=(2, 2), padding=(1, 1), groups=384, bias=False)
            (bn): BatchNorm2d(384, eps=1e-05, momentum=0.1, affine=True, track_running_stats=True)
            (rearrage): Rearrange('b c h w -> b (h w) c')
          )
          (proj_q): Linear(in_features=384, out_features=384, bias=True)
          (proj_k): Linear(in_features=384, out_features=384, bias=True)
          (proj_v): Linear(in_features=384, out_features=384, bias=True)
          (attn_drop): Dropout(p=0.0, inplace=False)
          (proj): Linear(in_features=384, out_features=384, bias=True)
          (proj_drop): Dropout(p=0.0, inplace=False)
        )
        (drop_path): DropPath(drop_prob=0.056)
        (norm2): LayerNorm((384,), eps=1e-05, elementwise_affine=True)
        (mlp): Mlp(
          (fc1): Linear(in_features=384, out_features=1536, bias=True)
          (act): QuickGELU()
          (fc2): Linear(in_features=1536, out_features=384, bias=True)
          (drop): Dropout(p=0.0, inplace=False)
        )
      )
      (6): Block(
        (norm1): LayerNorm((384,), eps=1e-05, elementwise_affine=True)
        (attn): Attention(
          (conv_proj_q): Sequential(
            (conv): Conv2d(384, 384, kernel_size=(3, 3), stride=(1, 1), padding=(1, 1), groups=384, bias=False)
            (bn): BatchNorm2d(384, eps=1e-05, momentum=0.1, affine=True, track_running_stats=True)
            (rearrage): Rearrange('b c h w -> b (h w) c')
          )
          (conv_proj_k): Sequential(
            (conv): Conv2d(384, 384, kernel_size=(3, 3), stride=(2, 2), padding=(1, 1), groups=384, bias=False)
            (bn): BatchNorm2d(384, eps=1e-05, momentum=0.1, affine=True, track_running_stats=True)
            (rearrage): Rearrange('b c h w -> b (h w) c')
          )
          (conv_proj_v): Sequential(
            (conv): Conv2d(384, 384, kernel_size=(3, 3), stride=(2, 2), padding=(1, 1), groups=384, bias=False)
            (bn): BatchNorm2d(384, eps=1e-05, momentum=0.1, affine=True, track_running_stats=True)
            (rearrage): Rearrange('b c h w -> b (h w) c')
          )
          (proj_q): Linear(in_features=384, out_features=384, bias=True)
          (proj_k): Linear(in_features=384, out_features=384, bias=True)
          (proj_v): Linear(in_features=384, out_features=384, bias=True)
          (attn_drop): Dropout(p=0.0, inplace=False)
          (proj): Linear(in_features=384, out_features=384, bias=True)
          (proj_drop): Dropout(p=0.0, inplace=False)
        )
        (drop_path): DropPath(drop_prob=0.067)
        (norm2): LayerNorm((384,), eps=1e-05, elementwise_affine=True)
        (mlp): Mlp(
          (fc1): Linear(in_features=384, out_features=1536, bias=True)
          (act): QuickGELU()
          (fc2): Linear(in_features=1536, out_features=384, bias=True)
          (drop): Dropout(p=0.0, inplace=False)
        )
      )
      (7): Block(
        (norm1): LayerNorm((384,), eps=1e-05, elementwise_affine=True)
        (attn): Attention(
          (conv_proj_q): Sequential(
            (conv): Conv2d(384, 384, kernel_size=(3, 3), stride=(1, 1), padding=(1, 1), groups=384, bias=False)
            (bn): BatchNorm2d(384, eps=1e-05, momentum=0.1, affine=True, track_running_stats=True)
            (rearrage): Rearrange('b c h w -> b (h w) c')
          )
          (conv_proj_k): Sequential(
            (conv): Conv2d(384, 384, kernel_size=(3, 3), stride=(2, 2), padding=(1, 1), groups=384, bias=False)
            (bn): BatchNorm2d(384, eps=1e-05, momentum=0.1, affine=True, track_running_stats=True)
            (rearrage): Rearrange('b c h w -> b (h w) c')
          )
          (conv_proj_v): Sequential(
            (conv): Conv2d(384, 384, kernel_size=(3, 3), stride=(2, 2), padding=(1, 1), groups=384, bias=False)
            (bn): BatchNorm2d(384, eps=1e-05, momentum=0.1, affine=True, track_running_stats=True)
            (rearrage): Rearrange('b c h w -> b (h w) c')
          )
          (proj_q): Linear(in_features=384, out_features=384, bias=True)
          (proj_k): Linear(in_features=384, out_features=384, bias=True)
          (proj_v): Linear(in_features=384, out_features=384, bias=True)
          (attn_drop): Dropout(p=0.0, inplace=False)
          (proj): Linear(in_features=384, out_features=384, bias=True)
          (proj_drop): Dropout(p=0.0, inplace=False)
        )
        (drop_path): DropPath(drop_prob=0.078)
        (norm2): LayerNorm((384,), eps=1e-05, elementwise_affine=True)
        (mlp): Mlp(
          (fc1): Linear(in_features=384, out_features=1536, bias=True)
          (act): QuickGELU()
          (fc2): Linear(in_features=1536, out_features=384, bias=True)
          (drop): Dropout(p=0.0, inplace=False)
        )
      )
      (8): Block(
        (norm1): LayerNorm((384,), eps=1e-05, elementwise_affine=True)
        (attn): Attention(
          (conv_proj_q): Sequential(
            (conv): Conv2d(384, 384, kernel_size=(3, 3), stride=(1, 1), padding=(1, 1), groups=384, bias=False)
            (bn): BatchNorm2d(384, eps=1e-05, momentum=0.1, affine=True, track_running_stats=True)
            (rearrage): Rearrange('b c h w -> b (h w) c')
          )
          (conv_proj_k): Sequential(
            (conv): Conv2d(384, 384, kernel_size=(3, 3), stride=(2, 2), padding=(1, 1), groups=384, bias=False)
            (bn): BatchNorm2d(384, eps=1e-05, momentum=0.1, affine=True, track_running_stats=True)
            (rearrage): Rearrange('b c h w -> b (h w) c')
          )
          (conv_proj_v): Sequential(
            (conv): Conv2d(384, 384, kernel_size=(3, 3), stride=(2, 2), padding=(1, 1), groups=384, bias=False)
            (bn): BatchNorm2d(384, eps=1e-05, momentum=0.1, affine=True, track_running_stats=True)
            (rearrage): Rearrange('b c h w -> b (h w) c')
          )
          (proj_q): Linear(in_features=384, out_features=384, bias=True)
          (proj_k): Linear(in_features=384, out_features=384, bias=True)
          (proj_v): Linear(in_features=384, out_features=384, bias=True)
          (attn_drop): Dropout(p=0.0, inplace=False)
          (proj): Linear(in_features=384, out_features=384, bias=True)
          (proj_drop): Dropout(p=0.0, inplace=False)
        )
        (drop_path): DropPath(drop_prob=0.089)
        (norm2): LayerNorm((384,), eps=1e-05, elementwise_affine=True)
        (mlp): Mlp(
          (fc1): Linear(in_features=384, out_features=1536, bias=True)
          (act): QuickGELU()
          (fc2): Linear(in_features=1536, out_features=384, bias=True)
          (drop): Dropout(p=0.0, inplace=False)
        )
      )
      (9): Block(
        (norm1): LayerNorm((384,), eps=1e-05, elementwise_affine=True)
        (attn): Attention(
          (conv_proj_q): Sequential(
            (conv): Conv2d(384, 384, kernel_size=(3, 3), stride=(1, 1), padding=(1, 1), groups=384, bias=False)
            (bn): BatchNorm2d(384, eps=1e-05, momentum=0.1, affine=True, track_running_stats=True)
            (rearrage): Rearrange('b c h w -> b (h w) c')
          )
          (conv_proj_k): Sequential(
            (conv): Conv2d(384, 384, kernel_size=(3, 3), stride=(2, 2), padding=(1, 1), groups=384, bias=False)
            (bn): BatchNorm2d(384, eps=1e-05, momentum=0.1, affine=True, track_running_stats=True)
            (rearrage): Rearrange('b c h w -> b (h w) c')
          )
          (conv_proj_v): Sequential(
            (conv): Conv2d(384, 384, kernel_size=(3, 3), stride=(2, 2), padding=(1, 1), groups=384, bias=False)
            (bn): BatchNorm2d(384, eps=1e-05, momentum=0.1, affine=True, track_running_stats=True)
            (rearrage): Rearrange('b c h w -> b (h w) c')
          )
          (proj_q): Linear(in_features=384, out_features=384, bias=True)
          (proj_k): Linear(in_features=384, out_features=384, bias=True)
          (proj_v): Linear(in_features=384, out_features=384, bias=True)
          (attn_drop): Dropout(p=0.0, inplace=False)
          (proj): Linear(in_features=384, out_features=384, bias=True)
          (proj_drop): Dropout(p=0.0, inplace=False)
        )
        (drop_path): DropPath(drop_prob=0.100)
        (norm2): LayerNorm((384,), eps=1e-05, elementwise_affine=True)
        (mlp): Mlp(
          (fc1): Linear(in_features=384, out_features=1536, bias=True)
          (act): QuickGELU()
          (fc2): Linear(in_features=1536, out_features=384, bias=True)
          (drop): Dropout(p=0.0, inplace=False)
        )
      )
    )
  )
  (norm): LayerNorm((384,), eps=1e-05, elementwise_affine=True)
  (head): Linear(in_features=384, out_features=6065, bias=True)
)
2022-08-28 14:04:29,256:[P:6987]:Rank[0/1] Trainable Model Total Parameter: 	21.9M
2022-08-28 14:04:33,772:[P:6987]:Rank[0/1] => start training
2022-08-28 14:04:33,772:[P:6987]:Rank[0/1] => Epoch[0]: epoch start
2022-08-28 14:04:33,772:[P:6987]:Rank[0/1] => Epoch[0]: train start
2022-08-28 14:04:33,772:[P:6987]:Rank[0/1] => switch to train mode
2022-08-28 14:04:36,143:[P:6987]:Rank[0/1] => Epoch[0][0/9293]: Time 2.369s (2.369s)	Speed 27.0 samples/s	Data 0.816s (0.816s)	Loss 8.83993 (8.83993)	Accuracy@1 0.000 (0.000)	Accuracy@5 0.000 (0.000)	
